اوع تغرق/neural_network_model.pt (torch, 12810 bytes, 5 tensors)

fc.0.weight f4 [64, 5]
0	0xbe92a2fe	-0.28639978
1	0xbecf83f6	-0.40530366
2	0xbe49d901	-0.19711687
3	0xbe2891e8	-0.16461909
4	0xbe2244d8	-0.15846574
5	0x3d6da954	0.058022812
6	0xbeec4ac9	-0.46150807
7	0xbcd7f631	-0.02636251
8	0x3e9897f4	0.2980343
9	0xbda6891e	-0.08131622
10	0x3ca8357b	0.020533314
11	0xbe440ef6	-0.19146332
12	0xbec123ed	-0.37722722
13	0xbed99645	-0.4249746
14	0x3e8d5e87	0.2761118
15	0x3cdaab8d	0.02669313
16	0xbd5b5f5d	-0.053557742
17	0x3def821f	0.116947405
18	0x3e82a0fc	0.25513446
19	0x3d84372e	0.06455837
20	0xbdbd93e4	-0.092567235
21	0x3e064440	0.13111973
22	0xbed60072	-0.41797215
23	0xbe5bf6a3	-0.21480803
24	0x3e586195	0.21130975
25	0xbe9753d5	-0.29556146
26	0xbe19b148	-0.15009034
27	0x3e5dd7fc	0.21664423
28	0xbec8589a	-0.39130098
29	0xbef4c58e	-0.47806972
30	0xbec77def	-0.38963267
31	0xbee38cab	-0.4444326
32	0xbc7566cc	-0.014978122
33	0x39ee85cc	0.00045494584
34	0x3ebdea4c	0.37092817
35	0xbec9393d	-0.39301482
36	0xbeae08a5	-0.3399097
37	0x3d1367fe	0.035987847
38	0xbd49830e	-0.04919725
39	0xbe7f6d67	-0.24944077
40	0xbe741f36	-0.23840031
41	0x3c2cfef6	0.010558834
42	0xbeb45ce5	-0.35227123
43	0x3ecfbd5b	0.40574154
44	0x3ee0856f	0.43851802
45	0x3ec7baf7	0.3900983
46	0x3e83b81f	0.2572641
47	0x3d841c86	0.06450753
48	0xbb691059	-0.0035562722
49	0xbec9853a	-0.39359456
50	0x3e93bf31	0.28856805
51	0x3eeffa57	0.46870682
52	0xbc3b1000	-0.011417389
53	0xbeb25d66	-0.34836882
54	0xbee45e8b	-0.4460338
55	0xbebfebaf	-0.374845
56	0x3e34e8cf	0.17666934
57	0xbe10dc76	-0.14146599
58	0xbec73a43	-0.38911638
59	0x3d942862	0.07234265
60	0x3e997557	0.29972336
61	0x3ec4c5dc	0.38432205
62	0xbeac6847	-0.33673307
63	0xbe87104c	-0.2637962
64	0x3e8a5eb5	0.2702538
65	0xbed6ff9f	-0.41991898
66	0x3e3ad189	0.18243994
67	0x3d77b6c3	0.06047703
68	0xbb978749	-0.0046242815
69	0xbe2ee414	-0.17079192
70	0x3ef929e3	0.4866477
71	0xbea16aee	-0.31526893
72	0x3e3125e8	0.17299616
73	0x3e154c62	0.14579919
74	0xbe9505cd	-0.29105988
75	0xbea3e53a	-0.32010823
76	0xbea3a2d2	-0.3196016
77	0xbec01871	-0.37518647
78	0x3e579fc6	0.21057042
79	0x3e67dad3	0.22642069
80	0x3d7cccda	0.0617188
81	0xbeaddb39	-0.33956316
82	0xbe45e244	-0.19324595
83	0x3bdac773	0.006676608
84	0xbe70dc5b	-0.23521559
85	0xbeba751f	-0.3641748
86	0xbe50ac8a	-0.20378318
87	0xbe40f913	-0.18845014
88	0x3dd4ed16	0.10396783
89	0x3e1af47b	0.15132324
90	0x3e7ee9a6	0.24893817
91	0x3eb1e51a	0.34745103
92	0xbea5ed80	-0.3240776
93	0x3ed3f1ee	0.41395515
94	0x3ed83208	0.4222567
95	0x3df264c8	0.11835629
96	0x3e1bb33d	0.15205093
97	0xbba5e848	-0.0050630905
98	0xbeaa0b68	-0.33211827
99	0xbd822d48	-0.06356293
100	0x3d9aa5fe	0.07551192
101	0xbe3f6f3e	-0.1869478
102	0xbe947904	-0.28998578
103	0x3dc6be3d	0.09704254
104	0x3eae532d	0.34047833
105	0xbe44d99d	-0.19223638
106	0xbe6783ed	-0.2260892
107	0xbefb15ca	-0.4904006
108	0x3de37221	0.11105753
109	0xbec4b60c	-0.3842014
110	0x3e88b949	0.2670386
111	0xbe8d6be8	-0.27621388
112	0x3e97c7dd	0.2964467
113	0xbea03fca	-0.31298667
114	0xbec1aea3	-0.3782855
115	0xbc8bf1e7	-0.017083121
116	0x3e4f143a	0.2022256
117	0x3e09afb1	0.13445927
118	0x3e13bc62	0.14427331
119	0xbe97c767	-0.2964432
120	0x3e24d0f2	0.16095331
121	0xbe6149de	-0.22000834
122	0x3dd5bcae	0.104363784
123	0xbdfd25b2	-0.123607054
124	0xbe13e921	-0.144444
125	0x3ed80ac3	0.4219571
126	0x3e4e27dc	0.20132393
127	0xbea20c23	-0.31649885
128	0xbed5bb00	-0.41744232
129	0x3ebd0580	0.3691826
130	0x3ebd81ee	0.3701319
131	0x3eb32817	0.34991524
132	0xbec29d15	-0.3801047
133	0xbd702187	-0.058625724
134	0xbe5d4025	-0.216065
135	0x3e74a067	0.23889314
136	0x3edec328	0.43508267
137	0x3df73d4d	0.12072239
138	0xba745496	-0.00093204656
139	0xbe14f767	-0.14547502
140	0x3b6d36b6	0.003619594
141	0x3e957ecf	0.2919831
142	0xbd8390ef	-0.06424128
143	0xbecad2bc	-0.39613903
144	0xbed95f10	-0.4245534
145	0x3e2500d4	0.16113597
146	0xbee1ff62	-0.44140154
147	0xbecc7f86	-0.39941043
148	0xbe6d8118	-0.23193777
149	0x3e8d0d8c	0.27549398
150	0xbec42262	-0.38307482
151	0x3e0ba2a5	0.13636263
152	0xbecd7a94	-0.40132582
153	0x3c342417	0.010994933
154	0x3e05ea50	0.13077664
155	0xbe1dc9b7	-0.1540898
156	0xbee02c96	-0.43784016
157	0xbdb81923	-0.089891694
158	0x3d3e8bc2	0.046520002
159	0xbe7e04b2	-0.24806479
160	0xbd5d48ab	-0.05402438
161	0x3ed72b78	0.42025352
162	0x3e15fa1c	0.1464619
163	0xbdad456b	-0.08460506
164	0xbde9c963	-0.114153646
165	0x3e63ec98	0.22258222
166	0xbee864a1	-0.45389274
167	0xbd65e112	-0.056122847
168	0xbe6ebe6f	-0.23314832
169	0x3e8987fc	0.2686156
170	0x3db75ee1	0.089536436
171	0x3e7e414b	0.24829595
172	0xbde44c17	-0.111473255
173	0xbed869b2	-0.4226814
174	0xbdd56976	-0.10420506
175	0x3ea7c12e	0.32764572
176	0x3df79345	0.12088636
177	0xbe1419f2	-0.14463022
178	0xbea1ff95	-0.31640306
179	0xbe87ca5d	-0.26521578
180	0xbc69415b	-0.014236773
181	0x3e92cf6a	0.2867387
182	0x3e5235d6	0.2052835
183	0xbe68076d	-0.22659083
184	0xbe8319e6	-0.25605696
185	0x3eb1f421	0.34756568
186	0xbee65f6f	-0.44994685
187	0xbef23888	-0.47308755
188	0xbe93efad	-0.28893796
189	0x3ec179ac	0.3778814
190	0x3e8595b5	0.2609078
191	0x3ef7c6c7	0.48393843
192	0x3e8ed394	0.27895796
193	0xbda2db56	-0.07951991
194	0xbe136851	-0.14395262
195	0x3e1675e6	0.14693412
196	0x3e98ef69	0.29870155
197	0x3e073631	0.13204266
198	0x3db3ac14	0.08773056
199	0xbe0f4f03	-0.13994984
200	0x3dc89667	0.09794312
201	0xbd1471b8	-0.036241263
202	0x3e0b0ff4	0.13580304
203	0xbea91d30	-0.3303008
204	0xbe5e5cf8	-0.21715152
205	0xbe5ce6dd	-0.21572442
206	0xbe29d103	-0.16583638
207	0xbebf00ea	-0.37305385
208	0xbe23faf8	-0.16013706
209	0x3eda7649	0.4266837
210	0xbe54c9b6	-0.20780072
211	0x3c9896c1	0.018626573
212	0xbe220df0	-0.15825629
213	0xbec52050	-0.38501215
214	0x3ee2647b	0.44217286
215	0x3ec2dd75	0.38059583
216	0x3d53139c	0.051532373
217	0x3ec8d259	0.39222983
218	0xbe0bfafa	-0.13669959
219	0x3d8b8d58	0.068140686
220	0x3e8ca59f	0.2747011
221	0xbe1335a5	-0.14375933
222	0xbee3ec25	-0.445161
223	0x3e7ece7a	0.24883452
224	0x3e99ae56	0.3001582
225	0x3e63e2f3	0.22254543
226	0x3d052592	0.032506533
227	0xbdc27635	-0.094952025
228	0x3df61575	0.12015811
229	0x3e97ffff	0.29687497
230	0xbdaed26a	-0.08536227
231	0xbe272ac2	-0.16324905
232	0xbe3b0b3c	-0.18266004
233	0xbd8c4504	-0.06849101
234	0x3e8bebdc	0.27328384
235	0xbe983cc0	-0.2973385
236	0xbe396642	-0.18105415
237	0x3e840e88	0.25792336
238	0x3ec7ef76	0.39049882
239	0xbee91991	-0.45527318
240	0x3e281b19	0.16416587
241	0x3ded2bfd	0.11580656
242	0xbea4cc2a	-0.32187015
243	0xbe3992e5	-0.18122442
244	0xbd1549cc	-0.03644733
245	0x3e93166c	0.28728044
246	0xbeb7d52e	-0.3590483
247	0x3a8d7d62	0.0010794813
248	0xbe01f0e5	-0.1268955
249	0x3d9b7e8e	0.07592498
250	0x3ee3acff	0.44467923
251	0xbe14cba6	-0.1453081
252	0xbe0ff90f	-0.14059852
253	0x3dc4d105	0.0961018
254	0x3e88ea77	0.26741382
255	0xbd8e2174	-0.069399744

fc.0.bias f4 [64]
0	0xbd1ee93e	-0.038796656
1	0x3ed5db72	0.41768986
2	0x3e39c395	0.18141015
3	0xbbc565ec	-0.006024113
4	0x3e3aaa08	0.18228924
5	0x3efacce0	0.48984432
6	0xbe1bd84a	-0.15219226
7	0xbc48f6b3	-0.012265849
8	0xbe9ceb69	-0.30648354
9	0xbe8426c6	-0.25810832
10	0x3dda0761	0.10645939
11	0x3ecb8c9d	0.39755717
12	0x3d7baf1a	0.061446287
13	0x3ee195fc	0.44059741
14	0x3e14327d	0.14472385
15	0x3ee3d30a	0.44496948
16	0x3db5672f	0.08857571
17	0x3dec65e2	0.1154287
18	0x3ed52d96	0.41636342
19	0x3e063938	0.13107765
20	0x3eeb6b13	0.4598013
21	0xbeb1e120	-0.3474207
22	0xbe579268	-0.21051943
23	0x3d87592c	0.06608805
24	0x3e9de15b	0.30835995
25	0xbd8cd55a	-0.06876631
26	0x3e7a4db2	0.24443701
27	0x3ed79d61	0.42112258
28	0x3e975896	0.29559773
29	0xbe95543c	-0.29165828
30	0xbe1bf71f	-0.15230988
31	0xbd378b2f	-0.04481047
32	0xbe7a3088	-0.24432576
33	0x3e3b9e6a	0.18322149
34	0xbe781d09	-0.24229826
35	0x3e3cf5e7	0.1845318
36	0x3eb03365	0.3441421
37	0xbe389995	-0.18027337
38	0xbd6d9608	-0.05800441
39	0xbe34e72a	-0.17666307
40	0x3ebfa6ac	0.37431848
41	0xbc18a99e	-0.009317784
42	0xbe89a6df	-0.26885125
43	0xbe853f1a	-0.26024705
44	0xbe29b5b2	-0.16573218
45	0xbe9b3212	-0.30311638
46	0x3ec5e7bb	0.3865336
47	0x3e210022	0.15722707
48	0xbe888779	-0.26665857
49	0x3ec35120	0.3814783
50	0xbe22ab29	-0.15885605
51	0x3e694239	0.22779168
52	0x3e059a6b	0.13047187
53	0xbed90acb	-0.42391047
54	0x3aeb59c0	0.0017955825
55	0x3ef62069	0.48071602
56	0xbe0acd36	-0.13554844
57	0x3c30c876	0.010789981
58	0xbe8c5998	-0.27412105
59	0x3e9f819a	0.31153566
60	0xbd2e2c16	-0.042522512
61	0xbec444ba	-0.38333684
62	0xbe8bc0f7	-0.27295658
63	0x3e057b2b	0.13035266

fc.2.weight f4 [32, 64]
0	0x3d8c1546	0.06839995
1	0xbd5ebf5d	-0.054381717
2	0xbd52a05e	-0.05142247
3	0xbb90da00	-0.004420519
4	0x3da4cc3c	0.08046767
5	0xbdace1a7	-0.08441477
6	0xbd72465e	-0.05914914
7	0xbd5ccd35	-0.05390664
8	0x3de8fde5	0.113765515
9	0xbdfc59c3	-0.12321808
10	0x3d217009	0.039413486
11	0x3d2a384e	0.041557603
12	0x3d735074	0.059402898
13	0x3ca2a560	0.019854248
14	0x3e27f210	0.16400933
15	0x3e096ea3	0.13421111
16	0x3d3d7d3e	0.04626202
17	0x3dfec1f8	0.1243934
18	0x3d2602c9	0.04053
19	0xbdfe6c06	-0.124229476
20	0x3df9d4d6	0.12198798
21	0x3e1e4ebd	0.15459724
22	0xbdd16f98	-0.10226363
23	0xbdf8fc63	-0.12157514
24	0x3b9bc6fc	0.0047539454
25	0x3d11bb37	0.035578933
26	0x3d4bdc0b	0.049770396
27	0xbd8d7d06	-0.06908612
28	0xbdfff15f	-0.1249721
29	0x3d9829d9	0.07429857
30	0x3d900048	0.07031304
31	0x3d521568	0.051289946
32	0x3d5aec7f	0.053448197
33	0x3da99187	0.0827971
34	0x3c5ac438	0.013352446
35	0x3e01224d	0.12610741
36	0xbb3bba34	-0.0028644921
37	0xbc7365ce	-0.014855815
38	0xbdde7d9d	-0.108638026
39	0xbd0b1836	-0.033958636
40	0x3dfef657	0.12449329
41	0xbd5a7d49	-0.053342137
42	0x3e19c5da	0.1501688
43	0x3db4d4b4	0.088296324
44	0x3d892106	0.06695752
45	0xbd1e2c49	-0.038616452
46	0x3bd453d1	0.0064797183
47	0x3c0bd014	0.008533496
48	0x3d17d2a3	0.037066113
49	0xbcfa92fa	-0.030587662
50	0x3dc14fae	0.09439026
51	0xbd4f200e	-0.05056768
52	0x3dcaa60c	0.09894952
53	0xbcbffb4d	-0.02343526
54	0xbdbedcc7	-0.09319454
55	0x3db47393	0.088111065
56	0x3cb138f8	0.02163361
57	0x3d88a588	0.066721976
58	0x3d80c6dc	0.062879294
59	0xbd249b85	-0.040187377
60	0xbe086225	-0.13318689
61	0x3dca564c	0.09879741
62	0xbb2280e3	-0.002479606
63	0x3c858e1d	0.016303116
64	0x3e18b945	0.14914425
65	0x3c884c8c	0.016638063
66	0x3dacdf62	0.084410444
67	0x3ccb3cea	0.02480932
68	0xbd18c94b	-0.037301343
69	0x3c990d77	0.018683178
70	0x3c888882	0.016666654
71	0xbd488136	-0.04895135
72	0x3d5ca5ea	0.053869165
73	0xbddc764c	-0.10764751
74	0xbdec4024	-0.11535671
75	0xbd0675b1	-0.032827083
76	0xb9f279cc	-0.00046248583
77	0x3d49f308	0.04930404
78	0x3c12cb2d	0.008959574
79	0x3d72dd6a	0.05929319
80	0x3dcb9523	0.09940555
81	0x3e0a7157	0.13519798
82	0x3c92049f	0.01782447
83	0xbd3d27ac	-0.046180412
84	0x3e15e4b5	0.14638026
85	0xbd2bedd0	-0.041974843
86	0x3caa3f45	0.020782122
87	0xbe2ac6e1	-0.16677429
88	0x3d12623a	0.035738207
89	0xbd8eed69	-0.06978876
90	0x3ce5b618	0.02804093
91	0x3d87e15a	0.06634779
92	0x3da5f191	0.08102716
93	0x3df0e30f	0.11762058
94	0x3e1fba31	0.1559837
95	0xbd38ef93	-0.04515035
96	0xbcc56909	-0.024097936
97	0xbbfd64c9	-0.007732962
98	0xbd0d6cb7	-0.034527507
99	0xbd9fafa3	-0.07797172
100	0xbe179919	-0.14804496
101	0xbcb81bf5	-0.022474268
102	0xbe099dd9	-0.1343912
103	0xbc98c85c	-0.018650226
104	0x3d7bcda7	0.061475422
105	0x3e0fecf6	0.14055237
106	0x3e3126a2	0.17299893
107	0xbdedcc8b	-0.11611279
108	0x3c25d8b2	0.010122465
109	0xbd8e6979	-0.06953711
110	0x3d984b49	0.074362345
111	0x3d9008d7	0.07032936
112	0x3ab3a9cb	0.0013707218
113	0x3dd51362	0.104040876
114	0x3d364e57	0.044508304
115	0xbc493ac9	-0.012282082
116	0x3e31b629	0.17354645
117	0x3d10a763	0.035315882
118	0xb9a41d54	-0.0003130237
119	0xbd848624	-0.06470898
120	0x3d1d936f	0.03847068
121	0xbdcb6326	-0.099310204
122	0x3cec5ccf	0.028852848
123	0xbcbca531	-0.023027988
124	0x3c97b56a	0.018519122
125	0xbb387e17	-0.0028151327
126	0xbccc894d	-0.024967814
127	0xbcb24572	-0.02176163
128	0xbd78226c	-0.060579702
129	0x3d93eb7e	0.07222651
130	0xbdb53618	-0.08848208
131	0xbcaf4f35	-0.021400074
132	0xbd5226aa	-0.051306404
133	0xbcd6d63a	-0.026225198
134	0x3cd7d9bf	0.026348947
135	0x3e29c12f	0.165776
136	0x3d0f5ddb	0.035001617
137	0x3dc81a94	0.097706944
138	0x3de354d1	0.11100162
139	0x3dc39e44	0.09551671
140	0x3dc2221a	0.094791606
141	0xbd0ae6c2	-0.033911474
142	0x3dc63936	0.09678881
143	0xbe259cac	-0.16173047
144	0xbd932caa	-0.07186253
145	0x3c7d5e79	0.015464419
146	0x3d921afc	0.07134053
147	0xbc830f36	-0.015998464
148	0xbcd6c58c	-0.026217245
149	0x3c009575	0.007848133
150	0x3df4800b	0.11938485
151	0x3de5946c	0.1120995
152	0x3c14225a	0.009041393
153	0x3ad94b2a	0.0016578187
154	0x3d8f5c7c	0.07000062
155	0x3e02f58e	0.12788984
156	0xbc45307a	-0.0120354835
157	0xbd73e830	-0.059547603
158	0x3d127dcb	0.035764497
159	0x3e173785	0.14767273
160	0x3d45aa4b	0.048258107
161	0x3dcc6846	0.09980826
162	0xbcd99788	-0.026561514
163	0xbd32353d	-0.043507803
164	0x3cc4f91f	0.024044571
165	0xbe16a6fc	-0.14712137
166	0xbd5cf349	-0.053942952
167	0xbd94ea73	-0.0727128
168	0x3cf6119c	0.030037694
169	0xbd7aeba3	-0.061259877
170	0x3da0c4be	0.078500256
171	0x3a923258	0.001115392
172	0xbb1ed368	-0.0024234895
173	0x3d3cdf1d	0.046111215
174	0x3db3a09e	0.0877087
175	0x3d18d2de	0.037310474
176	0x3da98055	0.082764305
177	0x3d0868bc	0.033303007
178	0xbcc6674f	-0.024219183
179	0x3e132d58	0.14372766
180	0xbdf618d3	-0.120164536
181	0x3bd1518a	0.006387894
182	0x3db56fb1	0.08859194
183	0xbdb5ebd4	-0.08882871
184	0x3decf82a	0.11570771
185	0xbbdc7221	-0.0067274724
186	0x3dd6085e	0.10450815
187	0xbcfee1c0	-0.031113505
188	0x3dd8f11d	0.10592864
189	0xbd9fad69	-0.07796747
190	0x3d9936a5	0.07481126
191	0x3dab493e	0.08363579
192	0x3cbc3f83	0.022979503
193	0xba1267f4	-0.0005584948
194	0x3de1ec7f	0.11031436
195	0x3e029498	0.12751997
196	0x3be71d70	0.00705307
197	0xbd818f50	-0.06326163
198	0x3be28b86	0.006913605
199	0xbd1ea8de	-0.038735263
200	0x3d04d74b	0.032431882
201	0x3d59a647	0.05313709
202	0x3e1f40b2	0.15552023
203	0x3dabac64	0.0838249
204	0xbb894dda	-0.004190189
205	0x3dc365cc	0.095409006
206	0xbd54e52d	-0.05197637
207	0x3b74ddcb	0.0037363644
208	0xbc92f619	-0.017939614
209	0xbde8717c	-0.113497704
210	0x3d3343f1	0.043765966
211	0x3b3d9897	0.0028930062
212	0x3cf70aad	0.030156458
213	0x3d607e2a	0.05480782
214	0xbbb5a3e8	-0.005543221
215	0x3bc6cac2	0.006066651
216	0xba0f8dee	-0.0005476166
217	0xbcbae4b7	-0.022814138
218	0xbd77b6e2	-0.060477145
219	0xbc119867	-0.008886433
220	0x3de141d5	0.109988846
221	0xbd87c9ca	-0.06630285
222	0xbdf44797	-0.11927717
223	0x3d61b11f	0.055100556
224	0x3e15775c	0.14596313
225	0x3d176dfc	0.036970124
226	0x3e013173	0.1261652
227	0x3cb35b96	0.021894258
228	0x3d793d76	0.06084963
229	0xbded1a12	-0.11577238
230	0x3da770a2	0.0817578
231	0xbc8f4345	-0.017488131
232	0x3deeda3f	0.11662721
233	0xbc2d4282	-0.010574939
234	0x3d6e84df	0.058232184
235	0x3de0a0d1	0.10968173
236	0xbdb575bc	-0.08860347
237	0xbd58dc35	-0.05294438
238	0xbd8fb120	-0.07016206
239	0xbd3554be	-0.04427027
240	0x3e1f54e5	0.15559728
241	0xbd0f9e9c	-0.03506337
242	0x3d7ac984	0.061227337
243	0x3d9d69dc	0.07686207
244	0xbc22dc31	-0.009940193
245	0xbc60ea50	-0.013727739
246	0xbcc7b4b0	-0.02437815
247	0xbe16350a	-0.1466867
248	0x3dd5b3f2	0.104347125
249	0x3dd6b0f5	0.104829706
250	0x3d187439	0.037220214
251	0x3c4a1b59	0.012335622
252	0x3de16b4e	0.11006795
253	0x3db38e7c	0.08767411
254	0xbd1b687e	-0.03794145
255	0x3d9bd361	0.07608677

fc.2.bias f4 [32]
0	0x3cb83104	0.02248431
1	0x3c7dc8d4	0.015489776
2	0x3d4d9c31	0.050197784
3	0x3d13e894	0.036110476
4	0xbd6a3fbe	-0.057189696
5	0x3dd3e597	0.10346525
6	0xbd59cada	-0.05317197
7	0x3d9e4b70	0.07729232
8	0x3e000d11	0.12504984
9	0x3da57e80	0.080807686
10	0xbd7a16ed	-0.06105702
11	0xbd551cbb	-0.052029353
12	0x3d9fcac1	0.07802344
13	0x3a8ba722	0.0010654668
14	0x3e24cfd9	0.16094913
15	0xbd820af3	-0.06349745
16	0x3def4fae	0.116851196
17	0xbd90c863	-0.07069471
18	0xbd1f4fc1	-0.03889442
19	0xbd423d97	-0.047422018
20	0x3d8841f0	0.066532016
21	0xbd76c817	-0.060249414
22	0xbc0335c3	-0.008008423
23	0x3d988e11	0.07448972
24	0xbd0d9630	-0.034567058
25	0x3e10afef	0.14129613
26	0xbd456870	-0.048195302
27	0x3d69ad0e	0.057049803
28	0x3db04b2c	0.08608088
29	0x3da6c42f	0.08142888
30	0x3cd1ba9e	0.025601681
31	0xbd18f19a	-0.037339784

fc.4.weight f4 [1, 32]
0	0x3e28624b	0.16443746
1	0x3e372672	0.1788576
2	0xbe653a4f	-0.22385524
3	0xbdf909f8	-0.121601045
4	0xbe1ec7cf	-0.15505908
5	0x3da43fe8	0.08020002
6	0xbe1986bd	-0.14992805
7	0xbdd875c3	-0.10569336
8	0xbe08af19	-0.13348044
9	0x3ddd0478	0.10791868
10	0x3e22efa0	0.15911722
11	0xbdbcc3bd	-0.092170216
12	0xbe489d56	-0.19591269
13	0x3d9fa6a9	0.0779546
14	0xbe651b4a	-0.22373691
15	0x3e26ef23	0.16302161
16	0x3de23321	0.11044908
17	0xbe2d7cf8	-0.16942203
18	0x3de5c12b	0.112184845
19	0xbe590673	-0.21193866
20	0xbe42e4f4	-0.19032651
21	0xbdf2128a	-0.11819942
22	0x3e6450be	0.22296426
23	0x3dc0ef81	0.09420682
24	0x3dceea86	0.101033255
25	0xbe4dc6a4	-0.20095307
26	0x3e4903a5	0.19630297
27	0xbe67644f	-0.22596858
28	0xbd4993ce	-0.049213223
29	0x3d77e2ff	0.060519215
30	0xbda38725	-0.07984761
31	0x3e580e9f	0.21099328
