data/chatbot_model1.pt (torch, 6728 bytes, 4 tensors)

layer1.weight f4 [8, 50]
0	0xbf5bd420	-0.8587055
1	0xbfd7cf80	-1.6860199
2	0xc01fb7cd	-2.4955933
3	0xbecb9d11	-0.3976827
4	0xc017b6ca	-2.3705316
5	0x3eddf492	0.43350655
6	0xbeee1372	-0.4649921
7	0x402993f5	2.6496556
8	0x400b7fef	2.1796834
9	0x4098052e	4.7506323
10	0x3f7985ba	0.97469676
11	0x40137a47	2.3043382
12	0x4031e275	2.7794468
13	0x402cb200	2.6983643
14	0x3e995f70	0.29955626
15	0xbf665458	-0.8997245
16	0xbfea5786	-1.830796
17	0x3f2e96b7	0.6819872
18	0x4039e45f	2.9045637
19	0xbf8ec7f0	-1.1154766
20	0xbfe0510d	-1.7524735
21	0x403bfbcf	2.9372442
22	0x403be940	2.9361115
23	0xbcbfab35	-0.023397068
24	0x3fcbe3e9	1.5928928
25	0x3f13ff9f	0.5781192
26	0x3fe10ad0	1.7581425
27	0x3f2c6986	0.67348516
28	0x40057e9a	2.0858521
29	0x401de09c	2.466834
30	0xbc834422	-0.0160237
31	0x3fc6b1f1	1.5523053
32	0x3f450d81	0.7697373
33	0xbf80571e	-1.0026586
34	0x3f1d872e	0.6153439
35	0x403605bf	2.8441007
36	0xbda6b17f	-0.081393234
37	0x3f6fffab	0.93749493
38	0x3f0090d3	0.50220984
39	0x405b3a05	3.4254162
40	0xc012b1c1	-2.2920992
41	0x3f9df7df	1.2341269
42	0xc0124c02	-2.2858891
43	0x3ea496cd	0.32146302
44	0x3d9861f0	0.07440555
45	0xbf8f25ef	-1.1183451
46	0x40227753	2.538533
47	0xbe561ed5	-0.20910199
48	0x3f24dacc	0.6439636
49	0xbf311bfe	-0.6918334
50	0x400030a3	2.0029685
51	0x3f7bc5c0	0.9834862
52	0x40718cc8	3.7742176
53	0x40011644	2.016984
54	0x407ed8e5	3.9819882
55	0xbea9b9d3	-0.33149585
56	0xc00b5537	-2.177076
57	0xc00a3f4f	-2.160114
58	0x3fcd5938	1.6042852
59	0x3f3bfed2	0.734357
60	0x3e6581ed	0.22412844
61	0x3fb6eea1	1.4291574
62	0x40248e1a	2.5711732
63	0xbffae50b	-1.9601148
64	0xbf9e1ba0	-1.235218
65	0x40650884	3.5786448
66	0xc0079c3e	-2.1189113
67	0x3d8c403c	0.06848189
68	0x400afdcc	2.1717405
69	0x4067250c	3.6116362
70	0x402d5eb9	2.7089064
71	0x4073c3f7	3.8088357
72	0xbebeb31a	-0.3724602
73	0xbf06139b	-0.52373666
74	0x404aeba4	3.1706324
75	0xbefecbb4	-0.49764788
76	0x3e8de216	0.27711552
77	0xbd6500f2	-0.055909105
78	0x3daea4ed	0.08527551
79	0x3fe5c57a	1.795089
80	0x4037b813	2.87061
81	0xbfa502ec	-1.2891517
82	0x3f34283f	0.7037391
83	0xbe41b2c4	-0.1891585
84	0x3f287989	0.6581045
85	0x401f137a	2.4855638
86	0xbf2cff7f	-0.67577356
87	0x3f43f199	0.76540524
88	0x3da8431f	0.08215927
89	0x40493085	3.1435864
90	0xc050cad2	-3.2623792
91	0xbeb1694d	-0.3465065
92	0xbfa46883	-1.2844394
93	0x3fde2e34	1.735785
94	0xbf56ce72	-0.8390876
95	0x40c34ea1	6.1033483
96	0x403b85f4	2.9300508
97	0x3f31f16d	0.6950901
98	0xc030fec0	-2.7655487
99	0x3e4ad1f7	0.19806658
100	0x3fb2708e	1.3940599
101	0x4078370c	3.8783598
102	0x3f918dde	1.137142
103	0x400bde45	2.1854413
104	0x4083e387	4.1215243
105	0xbee1d216	-0.44105595
106	0x404382f2	3.0548673
107	0xbff87a1b	-1.9412264
108	0x4022c453	2.5432327
109	0xbd45862f	-0.04822367
110	0x3e80e226	0.25172538
111	0x4022c387	2.543184
112	0xbfb7197f	-1.4304656
113	0xbff6c541	-1.9278947
114	0x3f614cd7	0.88007873
115	0x3f93eb5a	1.1556199
116	0x403cfd3e	2.9529567
117	0x3f0bed2d	0.54658777
118	0x3f679f13	0.90477103
119	0x3f99c262	1.2012446
120	0x3f250843	0.6446573
121	0x3fe3a730	1.7785397
122	0x405b4e97	3.4266717
123	0x3e6f514d	0.23370858
124	0xbfa93443	-1.3219074
125	0xbf52b016	-0.82299936
126	0x3fd09949	1.6296779
127	0x3e8a03a8	0.26955914
128	0x3f38d18e	0.72194755
129	0x3f8440ac	1.0332236
130	0x404a85ed	3.1644242
131	0x3fc46434	1.534308
132	0xc0088895	-2.1333363
133	0x3f7ca6d3	0.98692054
134	0x4003101b	2.047858
135	0x3f20c46b	0.6279971
136	0x3ee9860f	0.4561009
137	0x400417d2	2.0639539
138	0x3e9f6db2	0.31138378
139	0x3fd16ac7	1.6360711
140	0xbfdc196e	-1.719526
141	0xbf670ce3	-0.9025404
142	0x40562ae7	3.3463686
143	0xbfe43e9c	-1.7831607
144	0x3fb39508	1.4029856
145	0xbfa7e3d8	-1.3116407
146	0xbf407c4e	-0.75189674
147	0x3fa8b0cf	1.3178958
148	0xbfe31f70	-1.7743969
149	0xbf8676bd	-1.0504986
150	0xbf132c5f	-0.5748958
151	0xc0090a4c	-2.1412535
152	0xbeaf2501	-0.3420792
153	0x4005e4f7	2.0921
154	0x3fba8b7d	1.4573818
155	0x3eeb5546	0.45963496
156	0xc008fe93	-2.140538
157	0x401c25fd	2.4398186
158	0xbedc0596	-0.42973012
159	0xc03dd129	-2.9658911
160	0x3f172710	0.5904398
161	0xbf0ee249	-0.55814034
162	0xc01180a8	-2.2734776
163	0x4021d877	2.528837
164	0x3fae2ea8	1.3607988
165	0xbf34e0a8	-0.706553
166	0x402c9978	2.696867
167	0x3f1c4d16	0.61055124
168	0xbf80a7d1	-1.0051214
169	0xbf444dc4	-0.7668116
170	0x40595ec4	3.396409
171	0x404e56f1	3.2240565
172	0x3fcba057	1.5908307
173	0xbed06754	-0.40703833
174	0x40189480	2.3840637
175	0xbfd8661d	-1.6906163
176	0x3f9667c7	1.175042
177	0x3f219279	0.63114125
178	0xbf7fc79b	-0.9991395
179	0x3fe06061	1.7529413
180	0x400b0b95	2.172582
181	0xbfb583ca	-1.4180844
182	0x3fead1aa	1.8345234
183	0x401221f9	2.2833235
184	0xbeb50f65	-0.35363308
185	0x4087e1bb	4.246305
186	0x3f0206c8	0.507916
187	0x3fe54235	1.791083
188	0x3f04ebcb	0.5192229
189	0xc0690ed7	-3.6415308
190	0x402af0c8	2.6709461
191	0xc00f06a1	-2.2347796
192	0x3f311389	0.69170433
193	0x3fcbbff1	1.5917951
194	0xbd86fd75	-0.06591312
195	0xbfcca7b2	-1.5988677
196	0xbf68e6bb	-0.90977067
197	0xbceba3bc	-0.028764598
198	0x40658af1	3.5866053
199	0x3f8f01c4	1.1172414
200	0x3e37ae85	0.17937668
201	0xbf3af85d	-0.7303522
202	0x3f9ecbe2	1.240597
203	0x3fa89e5c	1.3173327
204	0xbf036535	-0.51326305
205	0x3bc20135	0.005920554
206	0xbfc7a784	-1.5597997
207	0x40169f1e	2.3534617
208	0xbdf5baf9	-0.11998553
209	0x3f225431	0.63409716
210	0x3fc3ad00	1.528717
211	0xbdf0b34c	-0.11752948
212	0x404cc119	3.1992857
213	0x40252199	2.5801756
214	0x40261faf	2.5956838
215	0x3fe9c6c8	1.8263788
216	0xbccff55c	-0.025385551
217	0xbf7d8567	-0.9903168
218	0xbe5ebaee	-0.21750996
219	0x3fd8a04a	1.6923916
220	0xbf102759	-0.5631004
221	0xbf576b77	-0.84148353
222	0x404d28e0	3.2056198
223	0x3f332d31	0.6999083
224	0xbf828a5c	-1.0198474
225	0xbe00acce	-0.1256592
226	0xbf0b9e61	-0.5453854
227	0xbf24bb59	-0.6434837
228	0x3e0309a0	0.1279664
229	0xbfd8eace	-1.6946657
230	0x3f36aabe	0.7135428
231	0x3f452e0a	0.77023375
232	0xbf17ce85	-0.592995
233	0x404b6312	3.1779218
234	0xbfb40cb8	-1.4066381
235	0xbe4f29f3	-0.20230846
236	0x3d1c4603	0.038152706
237	0xbfaa01df	-1.3281821
238	0xbf313b87	-0.69231457
239	0x404467ea	3.0688424
240	0x4079086d	3.8911393
241	0x3f0160f7	0.5053858
242	0x3f5d764d	0.8650864
243	0x3f990f07	1.1957711
244	0x40209c37	2.5095346
245	0xbf4f96fb	-0.8108975
246	0x3f24a2be	0.64310825
247	0xbc593124	-0.013256345
248	0x3ff20754	1.8908486
249	0x4058a658	3.3851528
250	0xbedc87a7	-0.43072245
251	0x40785d77	3.8807046
252	0x4096fbda	4.7182436
253	0x3e6e4db6	0.23271832
254	0xbf1fac36	-0.6237215
255	0xbe5cb9e0	-0.2155528

layer1.bias f4 [8]
0	0x3fa9e5ce	1.3273256
1	0x3f9f73ab	1.2457174
2	0x40300fd0	2.750965
3	0x3ff8eeaa	1.9447834
4	0x3f98311e	1.1889989
5	0x3fbb5306	1.4634712
6	0x3f5aa3ca	0.8540617
7	0xbde93362	-0.113867536

layer2.weight f4 [84, 8]
0	0xbf7322c5	-0.9497493
1	0x3e3f49f8	0.1868056
2	0x3f3fc71f	0.7491321
3	0x3e4b537a	0.19856063
4	0xc0cd27fe	-6.411132
5	0xc0b37dba	-5.6090975
6	0xc08d722b	-4.4201865
7	0x3f0618ac	0.52381396
8	0xbe89d2d0	-0.2691865
9	0xc11afb47	-9.686347
10	0x3e9bdb6b	0.3044084
11	0x3d842ee4	0.06454256
12	0x3eced766	0.4039871
13	0xbdcb74b7	-0.09934371
14	0xc1000c23	-8.002963
15	0xbfe110ca	-1.7583249
16	0x3d509c45	0.05093028
17	0xc117d130	-9.488571
18	0x3ee7ec6b	0.4529756
19	0xbe576fe8	-0.21038783
20	0x3ed699e4	0.41914284
21	0xbe43d716	-0.19125018
22	0xc0fa85e6	-7.828845
23	0xc006af2e	-2.1044421
24	0xc0d5f864	-6.686571
25	0x3e984416	0.29739445
26	0x3f2234fc	0.633621
27	0xc0daa814	-6.8330173
28	0xbdaf7ee9	-0.08569128
29	0x3f23228b	0.63724583
30	0xc0bc9816	-5.893565
31	0xbf3266ee	-0.6968831
32	0xbdb71108	-0.08938795
33	0xbeb57894	-0.35443556
34	0x3dc87907	0.09788709
35	0xbf913cbe	-1.1346662
36	0xbe6a180d	-0.22860737
37	0xbd1ec9fd	-0.03876685
38	0xc0f054be	-7.5103445
39	0xbe6ff50b	-0.2343332
40	0xbda9f2c9	-0.08298261
41	0x3ec6500d	0.3873295
42	0xc04a570d	-3.1615632
43	0x3f79a54d	0.97517854
44	0xc0fe2ded	-7.943106
45	0x3f0ca968	0.54945993
46	0xbfd35d80	-1.6512909
47	0xc032dc5a	-2.7946992
48	0xc0f23533	-7.568994
49	0x3fa966d0	1.3234501
50	0xbf553a6b	-0.83292264
51	0x3e9c7bd8	0.30563235
52	0xbfae77cc	-1.3630309
53	0x3f248a1e	0.6427325
54	0xc00c7bf0	-2.1950645
55	0xc0b9c8c2	-5.8057566
56	0x3f37ea26	0.7184166
57	0xc110380e	-9.013685
58	0x3e13e716	0.14443621
59	0xc03627c4	-2.846177
60	0x3e1f580f	0.15560935
61	0x3ec948a4	0.39313233
62	0xbe96f9cf	-0.29487464
63	0xc108c310	-8.547623
64	0xbed35d98	-0.41282344
65	0xbf0afdad	-0.5429333
66	0xbd4342d1	-0.047671143
67	0xbf54e77f	-0.83165735
68	0xbe8a58ce	-0.27020878
69	0x3eeb57a9	0.45965317
70	0xc0f033ae	-7.5063086
71	0xbedef3dc	-0.43545425
72	0xbf57cae7	-0.8429398
73	0x3fcc3e30	1.5956478
74	0xbfc2eeb9	-1.5229102
75	0xbfeb42b0	-1.8379726
76	0xc0d32bcd	-6.599097
77	0xbe825b25	-0.25460163
78	0x3fbfbd45	1.4979635
79	0xc0b9d4cc	-5.807226
80	0x3e911ca3	0.2834216
81	0x3ec1125f	0.3770933
82	0xc0ea6526	-7.324847
83	0x3eeb42a6	0.45949286
84	0xbdd0bd53	-0.10192361
85	0xbd7828db	-0.060585838
86	0xbf001c7b	-0.5004346
87	0xc0d0b3f3	-6.5219665
88	0xc0135975	-2.302335
89	0x3fa229d7	1.2669019
90	0xbe4238eb	-0.18967025
91	0xc0c91056	-6.283244
92	0xc07ea001	-3.9785159
93	0xbf5476cf	-0.8299379
94	0x3f94788f	1.1599292
95	0x3e52cce0	0.20585966
96	0xbfc0b499	-1.5055114
97	0xbfd91fee	-1.6962869
98	0xbffb960d	-1.9655167
99	0xc00fc705	-2.2465222
100	0xbfae9ef4	-1.3642259
101	0xbfdb3f29	-1.712865
102	0xbfc5ba20	-1.5447426
103	0xbf98b1ad	-1.1929222
104	0xbd83f879	-0.06443877
105	0xbf25ec72	-0.6481391
106	0x3f2faca2	0.6862279
107	0xc09a8e86	-4.829898
108	0xbe7eb518	-0.2487377
109	0xc0b291c3	-5.580293
110	0xc024a2da	-2.5724397
111	0x3f8c9812	1.0983908
112	0x3f9110ba	1.133323
113	0xc094ebf6	-4.653804
114	0x3f9a476f	1.205305
115	0xc0d6e5f4	-6.7155704
116	0xc0aeb38b	-5.459417
117	0xc052ac7e	-3.291778
118	0x3b97392d	0.00461497
119	0x3f212bdf	0.62957567
120	0x3f6ad499	0.9173065
121	0x3e98121f	0.29701325
122	0xc02a7741	-2.6635287
123	0xbefa94e2	-0.48941714
124	0xc0955ed9	-4.667828
125	0x3f0fcd80	0.56172943
126	0xc0d0b6ec	-6.5223293
127	0x3c76e980	0.015070319
128	0xbfde9004	-1.73877
129	0xbfbc486f	-1.4709605
130	0xc00a92c0	-2.165207
131	0xbfe40797	-1.7814816
132	0xbfdc854f	-1.7228183
133	0xbfd50435	-1.6641909
134	0xbfb9ea64	-1.4524655
135	0xbf65d045	-0.8977092
136	0xbfa4b987	-1.2869118
137	0xbfcf5b19	-1.6199676
138	0xc01364a6	-2.303018
139	0xc0088bd5	-2.1335347
140	0xbfa19d5f	-1.2626151
141	0xbfde2d16	-1.7357509
142	0xbfd8ee12	-1.6947653
143	0xbf6a11ff	-0.9143371
144	0xbda9595f	-0.08268999
145	0xbe2caa15	-0.16861756
146	0xbff302cc	-1.8985229
147	0x3d9d6e7d	0.076870896
148	0xbca095b7	-0.01960264
149	0xbf15266a	-0.5826174
150	0xbeecb973	-0.46235237
151	0xbec741f5	-0.3891751
152	0xc0d2d9aa	-6.5890703
153	0xc08bec55	-4.372599
154	0xbe36d8ea	-0.17856184
155	0x3da678e7	0.08128529
156	0x3f05ed6f	0.5231542
157	0x3ed498ea	0.41522914
158	0x3f2d8df6	0.6779474
159	0xc08a5945	-4.323397
160	0xbfc20dc6	-1.5160453
161	0xbf96ecef	-1.1791056
162	0xbff702ab	-1.9297689
163	0xbfeac386	-1.8340919
164	0xbfe3154c	-1.7740874
165	0xc005f82e	-2.0932727
166	0xbfeae55a	-1.8351243
167	0xbf02e1c9	-0.5112577
168	0xbee8d10e	-0.45471996
169	0xbfc1866a	-1.5119145
170	0xbc0ffcde	-0.008788316
171	0xbf84f892	-1.0388358
172	0xbcca230d	-0.024674917
173	0xbf34b6c9	-0.7059141
174	0xbd98cbfe	-0.074607834
175	0x3da87dfa	0.08227153
176	0xc04df5b3	-3.2181213
177	0x3eab7647	0.33488676
178	0xbec81ab7	-0.39082882
179	0xc086c008	-4.2109413
180	0x3f0947a8	0.53624964
181	0xbeb850b6	-0.35999078
182	0x3ef28e97	0.47374412
183	0xbf489fa6	-0.78368604
184	0xc0bf49b1	-5.9777455
185	0xbf26dae3	-0.65177745
186	0x3eb24816	0.34820622
187	0x3e31730e	0.17329046
188	0x3eb285c2	0.34867674
189	0xc0aec80a	-5.461919
190	0x3f27b7cc	0.65514827
191	0xc02347e0	-2.551262
192	0x3ed5e3e9	0.41775444
193	0xc084432c	-4.1331997
194	0xbfb7dc88	-1.4364176
195	0x3f641f95	0.8911069
196	0x3f376b85	0.71648437
197	0xc0cd7f92	-6.4218225
198	0xbf39fdc3	-0.72652835
199	0xbf9b52da	-1.2134659
200	0x3f524d9f	0.8214969
201	0x3f3b271b	0.73106545
202	0x3da2dc26	0.07952146
203	0x3d909489	0.07059581
204	0xc0a79cc7	-5.237888
205	0xc0c69b0d	-6.206427
206	0xc045b7fd	-3.0893548
207	0xc0753bde	-3.831779
208	0x3f47651f	0.77888674
209	0x3f7f9da5	0.9984992
210	0x3f5763c6	0.8413662
211	0xc0b12a0b	-5.536382
212	0xc0a21052	-5.064492
213	0xc0833304	-4.0999775
214	0x3c1bac98	0.009501599
215	0xc07116e5	-3.7670224
216	0xbfd63629	-1.6735278
217	0xbe95ced3	-0.29259357
218	0x3e1522e3	0.1456409
219	0xbe089ff8	-0.13342273
220	0xc0b86b90	-5.76313
221	0xc0c318ae	-6.0967627
222	0x3f99d389	1.201768
223	0x3cfd8673	0.0309479
224	0xbfd5a2b3	-1.6690277
225	0xbf8cc836	-1.09986
226	0xc0173738	-2.3627453
227	0xc005d3ec	-2.0910597
228	0xbfcf4a03	-1.6194462
229	0xbfc0fb32	-1.5076659
230	0xbfd43cd1	-1.658106
231	0xbf68cc88	-0.9093709
232	0x3fa1f271	1.2652112
233	0xc0305ead	-2.7557786
234	0xc000d5da	-2.0130525
235	0xbf9781e2	-1.1836512
236	0xc0eb2e08	-7.349369
237	0xbff2e661	-1.8976556
238	0x3ff48348	1.9102564
239	0x3f9ee5c8	1.2413874
240	0xbf0b8c31	-0.5451079
241	0xbf40defb	-0.7534024
242	0x3e1d9c6a	0.15391698
243	0xbf89ae66	-1.0756347
244	0xbe82606f	-0.25464198
245	0x3e8dec7c	0.27719486
246	0xc0efdaf1	-7.4954762
247	0xbec325d9	-0.38114813
248	0xbe0c3ea7	-0.13695775
249	0xbe394fe7	-0.18096887
250	0x3e16dc35	0.1473244
251	0xbff35781	-1.9011079
252	0xc0a98a2d	-5.298117
253	0x3f24f683	0.6443865
254	0xbeba6f71	-0.36413148
255	0xbe03d17d	-0.12872882

layer2.bias f4 [84]
0	0x3e0e297c	0.13883013
1	0x3e7bcb81	0.2458935
2	0xbea2df09	-0.31810787
3	0xba95517a	-0.001139208
4	0x3e1b359b	0.15157168
5	0xbe810010	-0.2519536
6	0xbf80e41a	-1.0069611
7	0x3e430cc7	0.19047843
8	0xbe7181ef	-0.23584722
9	0xbf5806b9	-0.8438526
10	0xbe8edcea	-0.2790292
11	0xbc9cb3aa	-0.01912864
12	0xbf44e436	-0.7691072
13	0xbef6c383	-0.4819604
14	0x3f227fb0	0.63476086
15	0xbf129cf8	-0.57270765
16	0xbf663400	-0.89923096
17	0xbee3041a	-0.44339067
18	0xbe5554e8	-0.2083317
19	0xbf789e52	-0.9711658
20	0xbf8c2958	-1.0950117
21	0xc01fde5b	-2.4979465
22	0xbfb71a3f	-1.4304885
23	0xbed1aee3	-0.4095374
24	0xbfcb47e7	-1.5881318
25	0xbfa06c9e	-1.2533147
26	0xbc7c4920	-0.015398294
27	0xbf7292f8	-0.94755507
28	0xbedf8c93	-0.43661937
29	0x3edf7f3a	0.43651754
30	0x3d05e065	0.032684702
31	0xbe6c390a	-0.23068634
32	0x3dccf1d4	0.100070626
33	0xbf117005	-0.56811553
34	0xbef30c15	-0.47470155
35	0x3f599859	0.8499809
36	0x3d7b7b40	0.061396837
37	0x3d9995f2	0.07499303
38	0xbf0f2b11	-0.5592509
39	0xbe5ce19c	-0.21570438
40	0xbf4586f6	-0.7715906
41	0xbfc8bd35	-1.5682741
42	0x3fc69cdc	1.551662
43	0xbf34fb23	-0.70695704
44	0x3ece30e6	0.40271682
45	0x3f6395fa	0.8890072
46	0xbf60df09	-0.87840325
47	0x3dbf0006	0.09326176
48	0xbf2be1cb	-0.6714141
49	0xbf9ef258	-1.2417707
50	0x3e7f2566	0.2491661
51	0xbf5aecbb	-0.8551747
52	0xbe7adf75	-0.24499305
53	0xbe465aeb	-0.1937062
54	0xbf2ace96	-0.66721475
55	0x3f437ca7	0.7636208
56	0xbf30932c	-0.68974566
57	0xc030a358	-2.7599697
58	0xbf69b06d	-0.9128483
59	0xbf24e90a	-0.6441809
60	0xbcb3ce13	-0.02194885
61	0xbe3e915e	-0.1861014
62	0xbe1e414a	-0.15454593
63	0xbfbb3eb8	-1.4628515
64	0xbf59c197	-0.8506102
65	0xbf74b268	-0.95584726
66	0xbf8699ba	-1.0515664
67	0x3ce77b13	0.028256929
68	0xbf12af0c	-0.5729835
69	0xbe8d1b93	-0.275601
70	0xbf862b53	-1.0481972
71	0xbf6182cb	-0.880902
72	0x3f0031df	0.500761
73	0xbfb6d049	-1.4282314
74	0xbfce726f	-1.6128672
75	0xbe3d56bd	-0.1849012
76	0x3e0b9865	0.13632353
77	0xc00e510b	-2.2236965
78	0xbf5d506d	-0.86450845
79	0xbe8c2759	-0.2737377
80	0x3e52e310	0.2059443
81	0xbe6f2531	-0.23354031
82	0x3e804966	0.25056
83	0xbf9a6c4b	-1.2064298
